=========================================================================================================
Layer (type:depth-idx)                                  Output Shape              Param #
=========================================================================================================
FCOS                                                    [49, 4]                   --
├─GeneralizedRCNNTransform: 1-1                         [1, 3, 800, 800]          --
├─BackboneWithFPN: 1-2                                  [1, 256, 7, 7]            --
│    └─IntermediateLayerGetter: 2-1                     [1, 2048, 25, 25]         --
│    │    └─Conv2d: 3-1                                 [1, 64, 400, 400]         (9,408)
│    │    └─FrozenBatchNorm2d: 3-2                      [1, 64, 400, 400]         --
│    │    └─ReLU: 3-3                                   [1, 64, 400, 400]         --
│    │    └─MaxPool2d: 3-4                              [1, 64, 200, 200]         --
│    │    └─Sequential: 3-5                             [1, 256, 200, 200]        (212,992)
│    │    └─Sequential: 3-6                             [1, 512, 100, 100]        1,212,416
│    │    └─Sequential: 3-7                             [1, 1024, 50, 50]         7,077,888
│    │    └─Sequential: 3-8                             [1, 2048, 25, 25]         14,942,208
│    └─FeaturePyramidNetwork: 2-2                       [1, 256, 7, 7]            --
│    │    └─ModuleList: 3-13                            --                        (recursive)
│    │    └─ModuleList: 3-14                            --                        (recursive)
│    │    └─ModuleList: 3-13                            --                        (recursive)
│    │    └─ModuleList: 3-14                            --                        (recursive)
│    │    └─ModuleList: 3-13                            --                        (recursive)
│    │    └─ModuleList: 3-14                            --                        (recursive)
│    │    └─LastLevelP6P7: 3-15                         [1, 256, 100, 100]        1,180,160
├─FCOSHead: 1-3                                         [1, 13343, 1]             --
│    └─FCOSClassificationHead: 2-3                      [1, 13343, 91]            --
│    │    └─Sequential: 3-16                            [1, 256, 100, 100]        2,362,368
│    │    └─Conv2d: 3-17                                [1, 91, 100, 100]         209,755
│    │    └─Sequential: 3-18                            [1, 256, 50, 50]          (recursive)
│    │    └─Conv2d: 3-19                                [1, 91, 50, 50]           (recursive)
│    │    └─Sequential: 3-20                            [1, 256, 25, 25]          (recursive)
│    │    └─Conv2d: 3-21                                [1, 91, 25, 25]           (recursive)
│    │    └─Sequential: 3-22                            [1, 256, 13, 13]          (recursive)
│    │    └─Conv2d: 3-23                                [1, 91, 13, 13]           (recursive)
│    │    └─Sequential: 3-24                            [1, 256, 7, 7]            (recursive)
│    │    └─Conv2d: 3-25                                [1, 91, 7, 7]             (recursive)
│    └─FCOSRegressionHead: 2-4                          [1, 13343, 4]             --
│    │    └─Sequential: 3-26                            [1, 256, 100, 100]        2,362,368
│    │    └─Conv2d: 3-27                                [1, 4, 100, 100]          9,220
│    │    └─Conv2d: 3-28                                [1, 1, 100, 100]          2,305
│    │    └─Sequential: 3-29                            [1, 256, 50, 50]          (recursive)
│    │    └─Conv2d: 3-30                                [1, 4, 50, 50]            (recursive)
│    │    └─Conv2d: 3-31                                [1, 1, 50, 50]            (recursive)
│    │    └─Sequential: 3-32                            [1, 256, 25, 25]          (recursive)
│    │    └─Conv2d: 3-33                                [1, 4, 25, 25]            (recursive)
…
