==========================================================================================
Layer (type:depth-idx)                   Output Shape              Param #
==========================================================================================
AlexNet                                  [1, 1000]                 --
├─Sequential: 1-1                        [1, 256, 6, 6]            --
│    └─Conv2d: 2-1                       [1, 64, 55, 55]           23,296
│    └─ReLU: 2-2                         [1, 64, 55, 55]           --
│    └─MaxPool2d: 2-3                    [1, 64, 27, 27]           --
│    └─Conv2d: 2-4                       [1, 192, 27, 27]          307,392
│    └─ReLU: 2-5                         [1, 192, 27, 27]          --
│    └─MaxPool2d: 2-6                    [1, 192, 13, 13]          --
│    └─Conv2d: 2-7                       [1, 384, 13, 13]          663,936
│    └─ReLU: 2-8                         [1, 384, 13, 13]          --
│    └─Conv2d: 2-9                       [1, 256, 13, 13]          884,992
│    └─ReLU: 2-10                        [1, 256, 13, 13]          --
│    └─Conv2d: 2-11                      [1, 256, 13, 13]          590,080
│    └─ReLU: 2-12                        [1, 256, 13, 13]          --
│    └─MaxPool2d: 2-13                   [1, 256, 6, 6]            --
├─AdaptiveAvgPool2d: 1-2                 [1, 256, 6, 6]            --
├─Sequential: 1-3                        [1, 1000]                 --
│    └─Dropout: 2-14                     [1, 9216]                 --
│    └─Linear: 2-15                      [1, 4096]                 37,752,832
│    └─ReLU: 2-16                        [1, 4096]                 --
│    └─Dropout: 2-17                     [1, 4096]                 --
│    └─Linear: 2-18                      [1, 4096]                 16,781,312
│    └─ReLU: 2-19                        [1, 4096]                 --
│    └─Linear: 2-20                      [1, 1000]                 4,097,000
==========================================================================================
Total params: 61,100,840
Trainable params: 61,100,840
Non-trainable params: 0
Total mult-adds (M): 714.68
==========================================================================================
Input size (MB): 0.60
Forward/backward pass size (MB): 3.95
Params size (MB): 244.40
Estimated Total Size (MB): 248.96
…
